…
           1       0.94      0.94      0.94     13797

    accuracy                           0.94     26839
   macro avg       0.94      0.94      0.94     26839
weighted avg       0.94      0.94      0.94     26839

Confusion Matrix:
 [[12205   837]
 [  847 12950]]
Class 0: 13052 predictions (48.63%)
Class 1: 13787 predictions (51.37%)
Model: "sequential"
┌─────────────────────────────────┬────────────────────────┬───────────────┐
│ Layer (type)                    │ Output Shape           │       Param # │
├─────────────────────────────────┼────────────────────────┼───────────────┤
│ embedding (Embedding)           │ (None, 46, 300)        │     1,500,000 │
├─────────────────────────────────┼────────────────────────┼───────────────┤
│ spatial_dropout1d               │ (None, 46, 300)        │             0 │
│ (SpatialDropout1D)              │                        │               │
├─────────────────────────────────┼────────────────────────┼───────────────┤
│ conv1d (Conv1D)                 │ (None, 44, 64)         │        57,664 │
├─────────────────────────────────┼────────────────────────┼───────────────┤
│ max_pooling1d (MaxPooling1D)    │ (None, 22, 64)         │             0 │
├─────────────────────────────────┼────────────────────────┼───────────────┤
│ dropout (Dropout)               │ (None, 22, 64)         │             0 │
├─────────────────────────────────┼────────────────────────┼───────────────┤
│ bidirectional (Bidirectional)   │ (None, 22, 128)        │        66,048 │
├─────────────────────────────────┼────────────────────────┼───────────────┤
│ batch_normalization             │ (None, 22, 128)        │           512 │
│ (BatchNormalization)            │                        │               │
├─────────────────────────────────┼────────────────────────┼───────────────┤
│ global_max_pooling1d            │ (None, 128)            │             0 │
│ (GlobalMaxPooling1D)            │                        │               │
├─────────────────────────────────┼────────────────────────┼───────────────┤
│ dense (Dense)                   │ (None, 1)              │           129 │
└─────────────────────────────────┴────────────────────────┴───────────────┘
 Total params: 1,872,549 (7.14 MB)
 Trainable params: 124,097 (484.75 KB)
 Non-trainable params: 1,500,256 (5.72 MB)
 Optimizer params: 248,196 (969.52 KB)

Process finished with exit code 0